models/density_model.pth (torch, 191963 bytes, 18 tensors)

scale1.0.bias f4 [32]
0.0532922 -0.00042244024 0.046993393 0.05769334 0.024347061 0.0055909273 -0.0009255934 0.009702211
-0.011105595 -0.023110263 0.033765316 -0.0049749557 -0.00018151102 -0.014075523 -0.020877702 0.0400112
0.0116920825 0.028568456 0.0058323387 0.038565252 -0.00012694957 0.019309033 0.026637042 0.036914386
-0.021920132 0.029085556 -0.001836411 -0.012353472 -0.007998623 0.0050930865 -0.0046354877 -0.010427425
00000000: ec48 5a3d f87a ddb9 257c 403d da4f 6c3d
00000010: 7d73 c73c 1934 b73b 86a3 72ba 06f6 1e3c
00000020: 3ef4 35bc bc51 bdbc 804d 0a3d f404 a3bb
00000030: fe53 3eb9 069d 66bc b707 abbc c9e2 233d
00000040: 2690 3f3c 6508 ea3c 341d bf3b 99f6 1d3d
00000050: c41d 05b9 fa2d 9e3c ed35 da3c 8a33 173d
00000060: d991 b3bc d544 ee3c bab3 f0ba 3866 4abc
00000070: a80c 03bc e8e3 a63b 4ae5 97bb cad7 2abc

scale1.1.weight f4 [32]
0.79753953 0.9499427 0.5722322 0.11088582 0.057743922 0.8137762 0.95762825 0.48311827
0.49557677 0.89800954 0.2257049 0.3820951 0.036946774 0.89354753 0.85200554 0.8507199
0.8383489 0.7958598 0.94590086 0.4933494 0.94777346 0.49202985 0.49883896 0.2509664
0.02727387 0.91499573 0.8900851 0.7431537 0.02723127 0.9129594 0.6018035 0.56773347
00000000: 8d2b 4c3f 722f 733f cf7d 123f 1b18 e33d
00000010: e484 6c3d a353 503f 2027 753f 475b f73e
00000020: 3dbc fd3e f4e3 653f 2f1f 673e f8a1 c33e
00000030: 8055 173d 88bf 643f 091d 5a3f c8c8 593f
00000040: 099e 563f 78bd 4b3f 8f26 723f 4b98 fc3e
00000050: 48a1 723f 56eb fb3e d267 ff3e ab7e 803e
00000060: 736d df3c 293d 6a3f 9edc 633f 523f 3e3f
00000070: 1d14 df3c b5b7 693f cb0f 1a3f fb56 113f

scale1.1.bias f4 [32]
0.024440639 0.0019093659 -0.0069413995 -0.058472343 -0.00865609 0.0013813099 -0.0051886146 -0.00386597
-0.008687125 -0.0395898 0.007819368 -0.0025062577 0.002289927 0.0014351394 -0.02277114 0.034182314
-0.006373492 0.0021068705 0.012728391 -0.010515299 -0.009392916 -0.030491438 0.0022543734 -0.011128867
1.2376055e-27 0.028478017 0.0058404193 -0.026963975 -9.995777e-34 -0.020594178 -0.0043071425 -0.0106890015
00000000: bc37 c83c b043 fa3a ae74 e3bb b280 6fbd
00000010: 46d2 0dbc 120d b53a 4105 aabb 375c 7dbb
00000020: 7154 0ebc ea28 22bd ce1c 003c 0740 24bb
00000030: 9a12 163b 4a1b bc3a 8b8a babc c102 0c3d
00000040: bad8 d0bb 6c13 0a3b be8a 503c 5c48 2cbc
00000050: bfe4 19bc 2ec9 f9bc 1cbe 133b da55 36bc
00000060: 3e1b c412 bb4a e93c fd60 bf3b 8ee3 dcbc
00000070: 5515 a688 1fb5 a8bc ee22 8dbb ec20 2fbc

scale1.3.bias f4 [32]
0.025755374 -0.013380309 -0.0165156 0.011414276 -0.01923876 0.004137844 0.018879684 -0.00058725895
-0.013116293 -0.021022635 -0.015797619 0.026750233 -0.0039348993 -0.0127443895 -0.028000597 0.0024200443
-0.029385777 0.0289629 -0.0048650242 -0.018361079 -0.007833733 -0.008689494 0.0143133765 -0.0033812833
0.004161449 -0.008568825 -0.0022817536 0.046052508 -0.012902518 -0.002203007 0.0087711485 -0.0044714846
00000000: effc d23c 1539 5bbc b94b 87bc f202 3b3c
00000010: 9b9a 9dbc c096 873b 91a9 9a3c 48f2 19ba
00000020: b8e5 56bc a937 acbc 026a 81bc 4e23 db3c
00000030: 54f0 80bb d8cd 50bc 8261 e5bc 9b99 1e3b
00000040: 71ba f0bc 9b43 ed3c c86a 9fbb f969 96bc
00000050: 0f59 00bc 615e 0ebc a782 6a3c 8598 5dbb
00000060: c45c 883b 4264 0cbc 7989 15bb 8ea1 3c3d
00000070: 1565 53bc 5360 10bb ddb4 0f3c 8885 92bb

scale1.4.weight f4 [32]
0.9111612 0.39194712 0.22542088 0.78578025 0.8522403 0.47097102 0.94248027 0.22935975
0.1720686 0.7635536 0.22294977 0.90051806 0.82911855 0.059297483 0.68752944 0.9095283
0.7422688 0.88839215 0.5030826 0.6426934 0.062780835 0.17653975 0.9588605 0.28990254
0.6865562 0.042157453 0.95616376 0.61653334 0.1540394 0.7125988 0.9564493 0.20664196
00000000: dc41 693f 4bad c83e bbd4 663e e528 493f
00000010: 6c2c 5a3f 1d23 f13e 6346 713f 48dd 6a3e
00000020: c032 303e 4078 433f f24c 643e 5a88 663f
00000030: 1d41 543f ebe1 723d ee01 303f d9d6 683f
00000040: 5405 3e3f ab6d 633f 05ca 003f 8e87 243f
00000050: 3d93 803d d6c6 343e e277 753f 1b6e 943e
00000060: 26c2 2f3f 4bad 2c3d 26c7 743f 21d5 1d3f
00000070: 81bc 1d3e e06c 363f dcd9 743f f399 533e

scale1.4.bias f4 [32]
0.010377503 -0.0075266915 -0.00949208 0.035003237 -0.020524751 -0.0018602808 0.004380485 -0.044144496
-0.018429253 -0.008427748 -0.011144653 0.00064077467 -0.0014000332 -0.0013679706 -0.003280504 0.02171536
-0.016466659 -0.010962085 -0.014093812 -0.0058098426 -0.0020265663 -0.010128074 0.015588334 -0.0010907088
0.0011236611 -0.00010073242 0.00032871182 -0.023578972 -0.01873996 -0.0033405197 0.007276538 0.009320421
00000000: 6706 2a3c 77a2 f6bb ab84 1bbc 8e5f 0f3d
00000010: 8623 a8bc aad4 f3ba 2c8a 8f3b dcd0 34bd
00000020: f2f8 96bc 8a14 0abc 1098 36bc a9f9 273a
00000030: 5281 b7ba 7a4d b3ba b9fd 56bb 69e4 b13c
00000040: 16e5 86bc 519a 33bc bbe9 66bc 7e60 bebb
00000050: 24d0 04bb 39f0 25bc 3666 7f3c 1df6 8eba
00000060: cf47 933a 4e40 d3b8 f456 ac39 b028 c1bc
00000070: 8b84 99bc 9fec 5abb 0670 ee3b aeb4 183c

scale2.0.bias f4 [32]
0.021339921 -0.020630503 -0.04076347 -0.01671868 0.0124139795 0.03864093 0.006971329 -0.026434721
0.005603836 -0.008091851 0.027975615 -0.006150011 0.019701716 0.031071227 0.026225874 -0.007994424
0.0070884926 -0.00924281 0.02379388 0.0035351187 -0.0038008885 -0.0005699019 0.0032638782 -0.0005388255
-0.018495424 -0.011200204 0.009224803 -0.010612273 -0.020576594 0.016721986 0.0028281875 0.023940522
00000000: 0fd1 ae3c 4d01 a9bc 99f7 26bd 9df5 88bc
00000010: 0164 4b3c f445 1e3d bf6f e43b a18d d8bc
00000020: 62a0 b73b af93 04bc 1e2d e53c 0886 c9bb
00000030: 7e65 a13c 1689 fe3c a5d7 d63c 0bfb 02bc
00000040: 9646 e83b 286f 17bc 62eb c23c 73ad 673b
00000050: 5418 79bb 7865 15ba cae6 553b f83f 0dba
00000060: b783 97bc 0f81 37bc a123 173c 19df 2dbc
00000070: 3f90 a8bc 8cfc 883c 1d59 393b ea1e c43c

scale2.1.weight f4 [32]
0.88496387 0.4391706 0.84960586 0.039782774 0.2940362 0.7167314 0.73438066 0.93587375
0.6983865 0.92520815 0.027855458 0.48419628 0.7966081 0.18531673 0.22218743 0.91081464
0.58991826 0.02773801 0.7631307 0.63286704 0.82595843 0.47399256 0.9172466 0.26561153
0.46104178 0.5866313 0.9137133 0.5456109 0.95619327 0.8181931 0.6658348 0.29551217
00000000: fe8c 623f f8da e03e c57f 593f 43f3 223d
00000010: ea8b 963e b67b 373f 5f00 3c3f 6c95 6f3f
00000020: 75c9 323f 71da 6c3f 2131 e43c 93e8 f73e
00000030: 82ee 4b3f abc3 3d3e 1a85 633e 262b 693f
00000040: e204 173f d33a e33c 895c 433f 9303 223f
00000050: 0372 533f 27af f23e acd0 6a3f 3cfe 873e
00000060: ab0d ec3e 782d 163f 1de9 693f 28ad 0b3f
00000070: 15c9 743f 1a75 513f 2674 2a3f 5f4d 973e

scale2.1.bias f4 [32]
0.029027961 -0.0087405015 -0.023047524 -0.0017491227 0.0038162777 0.034463488 -0.0014137853 -0.01901957
0.0057568504 0.0037505743 -0.0010680803 -0.00663424 -0.0020054542 -0.014946269 -0.014946271 -0.012893366
-0.013384311 4.155142e-05 -0.018120348 -0.020006036 0.007089566 0.0032356367 0.0076455134 -0.013006428
-0.013591984 -0.00071839313 0.016113097 -0.011046834 -0.0037025139 0.0076043447 0.02540861 0.0101011265
00000000: 0ccc ed3c 5234 0fbc 29ce bcbc d242 e5ba
00000010: 841a 7a3b 9629 0d3d c34e b9ba eece 9bbc
00000020: f6a3 bc3b 32cc 753b d4fe 8bba 0a64 d9bb
00000030: f06d 03bb 32e1 74bc 34e1 74bc b23e 53bc
00000040: df49 5bbc 7f47 2e38 2071 94bc b3e3 a3bc
00000050: 974f e83b fa0c 543b 3787 fa3b ea18 55bc
00000060: eab0 5ebc 8c52 3cba 9dff 833c c8fd 34bc
00000070: e0a5 72bb de2d f93b b825 d03c 327f 253c

scale2.3.bias f4 [32]
-0.014066515 -0.015037868 -0.008179456 0.017540615 -1.9670086e-05 0.0009369763 -0.0065991525 -0.002274703
-0.002547495 -0.008251868 0.0021606642 -0.003968893 -0.0027577684 0.0019960697 0.024495445 0.0027698039
0.021286588 -0.0073496336 -0.011104468 -0.003004121 0.0061799916 0.0016525176 -0.015058049 -0.014719635
0.011062143 0.021961145 0.03325832 -0.017371176 -0.011586459 0.0027678376 -0.006849729 0.015413251
00000000: 3d77 66bc 6461 76bc 2003 06bc 56b1 8f3c
00000010: 3001 a5b7 6a9f 753a b43d d8bb 2f13 15bb
00000020: e0f3 26bb d832 07bc ee99 0d3b 7d0d 82bb
00000030: adbb 34bb 7ed0 023b acaa c83c 9985 353b
00000040: 3661 ae3c 32d5 f0bb 84ef 35bc c9e0 44bb
00000050: 8781 ca3b 4a99 d83a 09b6 76bc a02a 71bc
00000060: fe3d 353c dce7 b33c e039 083d ff4d 8ebc
00000070: 22d5 3dbc 9c64 353b b173 e0bb dc87 7c3c

scale2.4.weight f4 [32]
0.61426973 0.794312 0.4195475 0.8669338 0.24630965 0.028492985 0.9302136 0.44996074
0.94222283 0.63921684 0.027227791 0.6796146 0.8337146 0.34342334 0.8997797 0.18871371
0.9442448 0.33752772 0.40690693 0.220076 0.9080422 0.81621695 0.53441304 0.28409377
0.59447485 0.6841783 0.06440484 0.94034576 0.90487343 0.33163345 0.6679404 0.9162429
00000000: c840 1d3f 0858 4b3f eece d63e 60ef 5d3f
00000010: 9938 7c3e 1f6a e93c 7a22 6e3f 4161 e63e
00000020: 8435 713f b7a3 233f d10c df3c 39fb 2d3f
00000030: 526e 553f 2fd5 af3e f657 663f 2b3e 413e
00000040: 07ba 713f 6fd0 ac3e 1b56 d03e 9a5b 613e
00000050: 7475 683f 98f3 503f 4bcf 083f bd74 913e
00000060: 812f 183f 4f26 2f3f afe6 833d 80ba 703f
00000070: c9a5 673f dccb a93e 24fe 2a3f e58e 6a3f

scale2.4.bias f4 [32]
-0.00507187 -0.031995602 -0.0064343284 0.009024729 -0.0011790794 -2.0423101e-06 0.0013382274 -0.0028880069
-0.0072937785 -0.01126529 -2.1696285e-07 -0.0049150377 -0.0041655 -0.023566011 0.014100186 -0.010822919
0.016150191 -0.001716726 -0.0031754666 0.0054365494 -0.012187853 -0.013401193 -0.006392748 -0.0044179526
-0.007613872 -0.0014335389 -0.025466025 -0.009915407 -0.01539663 -0.023298068 -0.0066821743 0.008705715
00000000: ee31 a6bb d20d 03bd 0fd7 d2bb 75dc 133c
00000010: 578b 9aba 9f0e 09b6 7667 af3a b744 3dbb
00000020: a600 efbb 0d92 38bc 4bf6 68b4 530e a1bb
00000030: bf7e 88bb 820d c1bc 7704 673c 9d52 31bc
00000040: 684d 843c c403 e1ba 7d1b 50bb 1525 b23b
00000050: 90af 47bc ad90 5bbc 427a d1bb 79c4 90bb
00000060: ca7d f9bb 95e5 bbba 209e d0bc 3b74 22bc
00000070: 2642 7cbc 97db bebc 24f6 dabb 6aa2 0e3c

fusion.0.bias f4 [32]
-0.0055515487 -0.004991005 -0.00740859 -0.0045074746 -0.0018333136 0.002902604 0.013477563 -0.0032681623
0.0052142646 0.0010682802 0.0032587333 -0.008769361 -0.037246507 -0.02768047 0.011112268 -0.0057484726
6.367917e-05 -0.011606649 0.035894003 -0.005971912 -0.014552393 0.009181147 -0.021831917 -0.013907816
0.0023443236 -0.004974035 0.02221569 -0.023885028 -0.002441067 0.002644051 -0.0041862587 0.02346166
00000000: c4e9 b5bb 968b a3bb c2c3 f2bb 70b3 93bb
00000010: cc4b f0ba 9d39 3e3b ffd0 5c3c aa2e 56bb
00000020: 6cdc aa3b 8905 8c3a 7990 553b 5ead 0fbc
00000030: cb8f 18bd 27c2 e2bc 3b10 363c af5d bcbb
00000040: 7e8b 8538 d029 3ebc 9705 133d 07b0 c3bb
00000050: 296d 6ebc 866c 163c d9d8 b2bc 9cdd 63bc
00000060: 39a3 193b 3bfd a2bb aefd b53c 89aa c3bc
00000070: 4ffa 1fbb d147 2d3b e22c 89bb ab32 c03c

fusion.1.weight f4 [32]
0.04292993 0.32184932 0.27863845 1.0039917 0.21608205 0.7303874 0.9684032 0.8498443
0.7369776 0.5917121 0.9945802 0.81540716 0.43765813 0.10582753 0.9869273 0.96454483
0.13903694 0.94608647 0.9650027 0.73123085 0.98085153 0.9466099 0.17854545 0.87844664
0.980026 0.8954009 0.6517394 0.80290365 0.7496761 0.033120226 0.57455856 1.0082748
00000000: 4bd7 2f3d 6fc9 a43e b3a9 8e3e cd82 803f
00000010: 9d44 5d3e abfa 3a3f 46e9 773f 658f 593f
00000020: 90aa 3c3f 727a 173f cf9c 7e3f 86be 503f
00000030: ba14 e03e 1bbc d83d 44a7 7c3f 69ec 763f
00000040: b35f 0e3e b932 723f 6b0a 773f f231 3b3f
00000050: 1619 7b3f 0755 723f 9ed4 363e e1e1 603f
00000060: fce2 7a3f fe38 653f 65d8 263f 188b 4d3f
00000070: c6ea 3f3f 13a9 073d 4516 133f 260f 813f

fusion.1.bias f4 [32]
0.0016874771 -0.008750807 -0.003997199 0.021449206 -0.011771288 -0.010250232 -0.017958462 0.006815231
-0.01451741 -0.016199058 -0.004580791 -0.0065196203 0.00086422334 0.0030160923 0.029693924 0.01714059
-0.0004251224 -0.010974329 0.021011235 -0.013769892 0.0140842255 -0.0062551284 -0.007537213 -0.03841698
0.006757218 -0.004797748 -0.03187536 0.005338109 -0.0029816441 -0.0006046355 -0.0062891925 0.03396932
00000000: 562e dd3a 8b5f 0fbc effa 82bb 3fb6 af3c
00000010: 5cdc 40bc 97f0 27bc a01d 93bc 4d52 df3b
00000020: 6eda 6dbc e3b3 84bc 761a 96bb 8aa2 d5bb
00000030: 0c8d 623a a2a9 453b ac40 f33c 6c6a 8c3c
00000040: f6e2 deb9 accd 33bc c11f ac3c 1d9b 61bc
00000050: 86c1 663c d2f7 ccbb bafa f6bb 205b 1dbd
00000060: a76b dd3b 6d36 9dbb bd8f 02bd 4eeb ae3b
00000070: b067 43bb 6780 1eba 9215 cebb 6a23 0b3d

density_head.0.bias f4 [16]
0.048726257 -0.04861723 0.007430375 -0.007655467 -0.00055526895 0.0019595665 0.014113596 0.0006779311
0.01986083 -0.028204972 0.009150267 -0.0045744837 -0.005404246 0.019538958 0.038128924 -0.0351515
00000000: 2f95 473d dc22 47bd 817a f33b b6da fabb
00000010: 788f 11ba 126c 003b b63c 673c 30b7 313a
00000020: 2eb3 a23c 1d0e e7bc 00eb 153c 8de5 95bb
00000030: 1a16 b1bb 2a10 a03c 132d 1c3d 05fb 0fbd

density_head.1.weight f4 [16]
0.99981636 0.5695962 0.9920193 0.9914507 0.99290496 0.17344114 0.8651687 0.9908276
1.0021027 0.95322865 0.58762956 0.98952574 0.88496286 0.9863204 0.9939526 0.72416264
00000000: f7f3 7f3f 0ed1 113f faf4 7d3f b7cf 7d3f
00000010: 052f 7e3f 8e9a 313e b27b 5d3f e1a6 7d3f
00000020: e744 803f cb06 743f e46e 163f 8f51 7d3f
00000030: ed8c 623f 7e7f 7c3f ad73 7e3f b962 393f

density_head.1.bias f4 [16]
0.003107276 0.0053369636 0.015974235 0.001674937 -0.0052278726 0.0076836753 -0.03011491 -0.009130191
0.008888399 -0.0050834552 -0.04156119 -0.012610616 -0.014775989 -0.0066048 0.0019239224 -0.006668766
00000000: 71a3 4b3b b2e1 ae3b 66dc 823c 8f89 db3a
00000010: 934e abbb 57c7 fb3b 8bb3 f6bc cc96 15bc
00000020: a6a0 113c 1d93 a6bb 113c 2abd c29c 4ebc
00000030: fd16 72bc 146d d8bb 202c fc3a aa85 dabb
