models/fast_density_model.pth (torch, 31861 bytes, 15 tensors)

features.0.weight f4 [16, 6, 3, 3]
000000 19 be 8e 3d c3 42 f5 3c 6c f7 69 3d 5e ce 0a 3e
       0.06969852 0.029939061 0.057120726 0.13555285
000010 91 ed 04 3d d4 17 d2 3d 83 ae 1f be 6b d1 50 3e
       0.032453123 0.10258451 -0.15593915 0.20392387
000020 05 8a db 3d 40 75 cb 3d c3 e9 83 3d 22 2e be bd
       0.107196845 0.09934473 0.06441071 -0.09286143
000030 4a 16 59 be 7d bd b8 bc b3 9b 28 be ad a2 0a 3e
       -0.21199909 -0.022551293 -0.16465645 0.13538618
000040 aa 77 40 3e ab 15 98 3d 3c 0e 81 bc 0c 3b 36 bd
       0.18795648 0.07426008 -0.015753858 -0.044489905
000050 4a 3d 03 be a0 e4 9b 3d 9e 69 a2 3d b6 65 5a 3e
       -0.12816349 0.07611966 0.07930301 0.21327862
000060 27 e8 2c 3d 42 cd 18 3e 27 e5 4c 3d f6 b4 9b bc
       0.042213585 0.1492205 0.050023224 -0.019007187
000070 fb e8 a9 bd 4d 69 27 3d ac 30 2c 3e e5 3f 3d 3e
       -0.082963906 0.040871907 0.16815442 0.18481405
000080 9c 83 7a 3e 37 0d a7 3c ed 95 5e 3e fc 6f d8 3d
       0.24464267 0.020392044 0.2173688 0.10568234
000090 43 a2 d4 3b 4b 52 5a 3d 3f ce 8b 3c 68 65 58 ba
       0.0064890697 0.053301137 0.01706612 -0.0008254857
0000a0 17 89 64 be eb a1 9f bd f9 bd 9b bd 39 de 6e be
       -0.2231792 -0.07794555 -0.07604594 -0.23326959
0000b0 67 ff 5a 3d bc 2d d0 bd 6b cd 0a 3d 80 6c 23 3e
       0.053466227 -0.10164973 0.033887308 0.15959358
0000c0 d8 78 72 bd 90 00 45 3e a8 e5 1b 3e 32 b8 9f bd
       -0.059197277 0.19238496 0.15224326 -0.07798804
0000d0 7f e3 a5 3d e3 6a d0 bd 72 49 d3 bd 35 36 6b be
       0.08100032 -0.10176637 -0.10316743 -0.22969897
0000e0 b4 f6 a2 3e c3 19 d3 3b 90 6b b6 bc d4 88 e2 3d
       0.31828845 0.00644228 -0.022268087 0.11061254
0000f0 2c dc 7c bd 80 d6 18 be 5f bc 25 be 5e 49 04 be
       -0.06173341 -0.14925575 -0.16185139 -0.12918612
000100 83 dd b4 bb 0f 80 9b 3e 77 7e 56 3c e9 72 e7 3d
       -0.0055195703 0.30371138 0.013091675 0.11301214
000110 16 f1 3f 3e bf 37 99 3b da d5 22 be e3 c1 87 bc
       0.1874431 0.004675835 -0.1590189 -0.016571945
000120 14 0f 6a bc da cf ff bc 33 54 04 be 0f e8 2e 3e
       -0.0142858215 -0.031227041 -0.12922744 0.17080711
000130 d0 f5 1d be c3 e5 2f be aa 46 a4 bc 8c 54 d4 bd
       -0.15425801 -0.17177491 -0.020053227 -0.103676885
000140 30 b1 31 bd 4b 6c 9f bd f4 e4 9e 3d 31 4c 7d be
       -0.04338187 -0.07784327 0.07758513 -0.24736096
000150 00 38 41 be 8a c6 8b 3c 64 d9 1e 3d 27 4f 8f be
       -0.18869019 0.017062444 0.03878154 -0.27990076
000160 83 a4 8b be e8 c7 92 3c 9d b4 d8 3d 7d 4d d0 3b
       -0.2727395 0.017917588 0.10581324 0.0063568936
000170 c3 dd c5 3d 33 cd a5 bc c7 03 f8 3d 93 49 99 bd
       0.09661438 -0.020239448 0.121100955 -0.07484736
000180 b6 57 3e bd 0a 81 1d 3e c3 6c 62 bd 31 66 07 be
       -0.046470366 0.15381256 -0.055279505 -0.13222577
000190 23 db 07 bc cb 30 dd bd fd ad c0 3d a4 b3 9f bd
       -0.008291992 -0.10800322 0.09408186 -0.077979356
0001a0 95 78 b6 bd 48 45 4c 3d 5c e4 b8 3d fa 4f bd bc
       -0.08909718 0.04987076 0.09027931 -0.023109425
0001b0 26 5e b2 bd 7a 94 e0 bd 46 7e 97 bd 9d 28 71 bd
       -0.08709364 -0.1096582 -0.073971316 -0.058876622
0001c0 e3 66 a0 bd 4d b7 8d 3c 09 b9 7a bc 2f fd 87 bc
       -0.07832124 0.017299319 -0.015302905 -0.01660022
0001d0 0a e0 3a be df 6d 3c bd 9b 0f 5e 3d fb 6c 8b bd
       -0.18249527 -0.04600322 0.0542141 -0.06807896
0001e0 19 db 8b 3d cd da d5 bd 70 88 24 bd 56 33 4b bd
       0.06828899 -0.104421236 -0.04016918 -0.049609505
0001f0 ce 6d 86 be 07 ce 18 be 9c 01 18 be b0 56 09 be
       -0.2625565 -0.14922343 -0.14844364 -0.13411975
000200 43 30 13 bd 0d 13 db 3d f8 c1 c7 3d b2 a3 0d 3e
       -0.035934698 0.10696993 0.097537935 0.13831976
000210 29 76 c2 bd 1b f7 67 bd 13 f6 be 3d 7a 58 db bd
       -0.094951935 -0.056632143 0.09324279 -0.10710235
000220 91 fc 6c bd 31 c3 0b 3e 10 5f bc 3c 7b e3 3b bd
       -0.057858054 0.13648678 0.022994548 -0.04587124
000230 56 11 0c 3d 0e da 34 3e 97 65 24 bd 2d 32 c4 3d
       0.03419622 0.17661306 -0.040135946 0.09579883
000240 3b 6c 74 3c 87 9a d7 3c e9 db 35 3c 92 81 e5 3d
       0.014918382 0.026318802 0.011099794 0.11206354
000250 02 49 02 3e 69 f5 58 3d 15 17 df bc f6 78 c8 bd
       0.12723163 0.052968416 -0.027232686 -0.097886965
000260 38 13 90 bd ac a5 e4 bd 72 c6 81 bd 22 f0 d5 3b
       -0.07034916 -0.11164412 -0.063366786 0.00652887
000270 8c 06 a4 bb 6a 37 8d bd 21 6f 85 bc 34 20 89 3e
       -0.0050056633 -0.06895335 -0.016288342 0.26782382
000280 e3 3b 47 ba 55 78 17 be 3e 5d 87 3b 5d eb 55 be
       -0.00076001714 -0.14791997 0.0041309884 -0.20890565
000290 c8 b4 21 bd b3 a7 40 3d aa 71 03 bb 4f c9 b1 bd
       -0.039479047 0.04703493 -0.0020056763 -0.08680975
0002a0 09 cb 96 bd 7a e2 40 be eb dd 20 3e be 5e 77 3d
       -0.07362945 -0.18836394 0.15709655 0.060393088
0002b0 61 b7 08 bd b9 11 33 bd 9f 74 fb bd 25 fa 4b bd
       -0.03337801 -0.043718074 -0.12278103 -0.049799103
0002c0 66 d7 84 3e 8d 6e f5 bd 58 aa 36 bd 6b da b1 3c
       0.25945586 -0.119839765 -0.044596046 0.021710595
0002d0 f7 e4 a7 3c 24 84 1f 3e 3c 93 c8 bc 1e f0 84 bd
       0.020494921 0.15577751 -0.02448427 -0.06491111
0002e0 1e 29 e8 3c 63 7f c7 bd f7 4a 18 3e ba 79 1a bd
       0.028339919 -0.09741094 0.14872347 -0.037713744
0002f0 f3 05 a6 bd ef be 4b 3d 2b dc ab bd 42 69 ab bd
       -0.081066035 0.049742635 -0.08391603 -0.08369686
000300 fc 7d 0c be 47 f8 14 bd 52 fc 18 be 03 67 f6 3d
       -0.13719934 -0.03636959 -0.14940003 0.12031367
000310 85 f9 62 be c0 60 4f 3e cc f4 0a 3e b6 15 37 3d
       -0.22165497 0.20251751 0.13569945 0.04469844
000320 3b a8 5a 3e 08 de 83 3d 16 44 a0 3d f4 80 80 bd
       0.21353237 0.064388335 0.07825486 -0.06274596
000330 fe 05 4e 3d da 28 eb 3d 88 43 02 be 3e a2 18 3c
       0.050298683 0.11482401 -0.12721074 0.009316025
000340 2f 35 1f be 19 cd c2 3d 98 0e 13 3d 7d fa 7d 3e
       -0.15547632 0.095117755 0.03590259 0.24802585
000350 b2 4a c4 bd 90 3d eb 3c 30 69 5b bd 5c 3b 44 bd
       -0.095845595 0.028715879 -0.05356711 -0.047908172
000360 ad 06 0f bc c3 48 04 3d 2b 4c c0 3d 59 c2 fb 3c
       -0.008729619 0.032295953 0.09389528 0.03073232
000370 ed 06 cc 38 af 78 e9 bd e5 64 08 3e 34 39 88 3d
       9.728768e-05 -0.11399972 0.13319738 0.06651536
000380 1e ed ec bd 59 8b 34 3c 0e bb f9 3c d0 00 63 3d
       -0.11568664 0.011019551 0.030484702 0.055420697
000390 82 5e 3a 3c 4b 58 1f be 27 07 80 be a2 5a f4 bd
       0.0113750715 -0.15561025 -0.25005457 -0.11931349
0003a0 de 31 b9 3c 83 db ab 3c 40 2a aa 3d 11 f2 1b 3d
       0.022606786 0.020978695 0.0830884 0.03807265
0003b0 03 4c 26 3e 62 ff 47 3d 66 42 98 bd 57 6d 95 3c
       0.16239934 0.048827536 -0.074345395 0.018240614
0003c0 5d 54 74 3e c2 e6 98 bc 07 79 80 bd bc 9e 57 3d
       0.23860307 -0.018664721 -0.06273084 0.052641615
0003d0 84 46 aa 3e 98 fe ed bc 36 c3 fb bd 63 3c 2c 3e
       0.33256924 -0.029052064 -0.12293093 0.1681991
0003e0 b7 05 64 3e 40 1a eb 3d bd 1f b2 bd 08 ee 97 bd
       0.22267805 0.11479616 -0.0869746 -0.07418448
0003f0 32 a1 fc bd 52 ca 06 be 34 bf 9d bd bf db 89 3d
       -0.12335433 -0.13163117 -0.07702485 0.06731366

features.0.bias f4 [16]
000000 5b 25 e4 36 7d a0 84 b7 8f 97 e3 b6 8c be 63 35
       6.7992783e-06 -1.581036e-05 -6.782771e-06 8.484137e-07
000010 46 03 a4 b7 0a c8 11 38 78 0f 36 38 2b 47 4f b8
       -1.9551848e-05 3.4756995e-05 4.3406588e-05 -4.9418926e-05
000020 1f 8a 52 37 d5 f8 4a 37 08 59 94 37 e5 c9 88 38
       1.2549134e-05 1.2098074e-05 1.7684433e-05 6.522591e-05
000030 07 fd 26 b6 23 8c 3e 35 91 1c 6f b8 f2 d9 4b 38
       -2.488321e-06 7.098444e-07 -5.7008645e-05 4.860195e-05

features.1.weight f4 [16]
000000 f9 f2 80 3f c3 84 81 3f ec 1e 81 3f 24 45 81 3f
       1.0074149 1.0118641 1.0087562 1.0099225
000010 b5 37 7d 3f c4 93 7d 3f c1 36 81 3f f0 61 81 3f
       0.9891313 0.990536 1.0094835 1.0108013
000020 69 9f 7d 3f 23 18 7f 3f 9a 6e 7f 3f d4 0b 80 3f
       0.99071366 0.99646205 0.9977814 1.000361
000030 35 17 81 3f cf 90 7d 3f 63 d0 7c 3f f3 de 7e 3f
       1.0085207 0.99049085 0.9875547 0.99558944

features.1.bias f4 [16]
000000 35 e9 12 3c 15 64 3d 3c 42 e5 0a 3c 08 4e 2d 3c
       0.008966734 0.011559506 0.008477511 0.010577686
000010 56 a1 94 bb 68 b8 f0 bb 85 0e 32 3c 6e b1 36 3c
       -0.0045358343 -0.0073462017 0.01086772 0.011150701
000020 55 55 19 bc b6 65 44 bc 99 62 34 bc 80 3a 8a bb
       -0.009358724 -0.01198714 -0.011009836 -0.0042183995
000030 e2 2d 1c 3c bf 94 f5 bb d9 f6 aa bb 24 38 0d bc
       0.009532424 -0.0074945386 -0.005217415 -0.008619342

features.1.running_mean f4 [16]
000000 26 15 18 43 b8 96 c2 c2 50 10 b2 c2 45 85 85 c2
       152.08261 -97.29437 -89.03186 -66.76029
000010 68 fe 31 42 0b e8 4a c1 76 aa 97 c2 d2 4e e5 c1
       44.498444 -12.681651 -75.83293 -28.663486
000020 c8 c5 82 42 da 80 3a c1 86 fb bc c2 8f 56 80 42
       65.38629 -11.656458 -94.49126 64.16906
000030 f3 13 7b 42 7f ff 91 c2 4e b9 49 42 eb 7b 9e 42
       62.76948 -72.999016 50.43096 79.24203

features.1.running_var f4 [16]
000000 a2 f7 ac 45 9b 30 7c 45 06 88 ff 44 40 0e e6 44
       5534.954 4035.0378 2044.2507 1840.4453
000010 de d6 b3 44 b2 46 57 44 c5 4c 05 45 f6 36 b3 44
       1438.7146 861.1046 2132.798 1433.7175
000020 60 00 00 45 5c 26 05 44 f5 8c 11 45 5f ea b6 44
       2048.0234 532.59937 2328.8098 1463.3241
000030 b8 e3 1b 45 03 a3 1f 45 4b 32 bd 44 f1 c6 b4 44
       2494.2324 2554.1882 1513.5717 1446.2169

features.3.weight f4 [32, 16, 3, 3]
000000 24 85 01 be 44 2c da 3d 79 54 64 3d 29 0b 82 3b
       -0.12648445 0.10652974 0.055744622 0.0039686156
000010 00 e7 f7 bc d5 3c c9 3d 83 39 7d 3d ea c8 35 3d
       -0.030261517 0.09826056 0.061822426 0.04438106
000020 0f 5b d9 bd 54 e0 dd bd 55 eb a4 bd 11 ed 13 bc
       -0.10613071 -0.10833803 -0.080526985 -0.009028689
000030 72 ed 0e ba 53 19 a6 bc 2e 49 93 bd 5d ac 97 3c
       -0.0005452252 -0.020275747 -0.07191692 0.018514806
000040 54 af d4 3d 60 dc 07 bd 06 02 5d bc 31 19 5b bd
       0.10385004 -0.03316915 -0.013489252 -0.05349082
000050 e2 47 72 3b 6a d6 37 be 57 3a 4c 3d d8 29 a8 3c
       0.0036969115 -0.17952886 0.049860325 0.020527765
000060 bd dd 7c bd 6d df 5c bc 9a 81 72 3d 12 63 51 bc
       -0.061734904 -0.013481003 0.05920563 -0.012779968
000070 b2 e4 68 bd 53 ab de 3d 84 98 06 3d 95 10 03 3d
       -0.056858726 0.10872521 0.032860294 0.031998236
000080 18 d0 1b 3d 29 ce c5 3b 51 c7 91 bd c8 1b da 3d
       0.03804025 0.006036539 -0.07118095 0.1064983
000090 34 eb 6b 3d 78 b7 11 3e c4 b4 01 be ca af 8e bc
       0.057597354 0.14230144 -0.12666613 -0.017417807
0000a0 92 69 ce bc ca 27 ee bd 72 b1 08 3e 1c e0 6e bd
       -0.025196824 -0.11628683 0.1334894 -0.058319196
0000b0 a7 c1 2a bd 58 cc de 3c 09 1d 83 3c 00 e7 30 3e
       -0.041688588 0.027197048 0.016005056 0.1727562
0000c0 b6 54 aa bd 7a 78 b2 3c 7e eb a9 3d fb 17 3d be
       -0.083169386 0.021785963 0.0829687 -0.18466179
0000d0 c3 a1 4b 3e 02 50 cc 3d f8 98 2c bd c8 e1 ce bb
       0.19885926 0.09976198 -0.04213807 -0.0063135363
0000e0 f1 36 f0 bd e4 16 31 be 62 e8 4a bc 50 c1 b4 bb
       -0.11729229 -0.17293888 -0.012384506 -0.0055162087
0000f0 68 d3 2a be 9c d8 b4 3d 19 62 94 3d d9 bb 7a bd
       -0.16682208 0.088303775 0.07245273 -0.0612143
000100 16 c0 35 bd 1f 5a fc ba a3 92 07 be 16 14 76 3d
       -0.04437264 -0.0019252932 -0.13239531 0.06007775
000110 cf f6 f8 3d 1f 6d fb bd 98 e7 46 3c 80 fa 00 bc
       0.1215645 -0.122766726 0.012140177 -0.007872224
000120 d9 6a e0 3b 30 77 23 3c 65 d1 13 be ca df 0c 3d
       0.0068486747 0.009977147 -0.14435346 0.03439311
000130 95 a1 3b bd f4 a5 e9 bd ca 96 0d bd b0 e8 ac 3d
       -0.045808394 -0.11408606 -0.03456763 0.08442819
000140 20 33 33 3c 31 67 c6 bd 9c af e5 3a 27 24 d5 bd
       0.010937482 -0.09687651 0.0017523649 -0.10407286
000150 b7 df 81 3c 53 98 94 bd 12 a4 39 bd 6b 22 2b bd
       0.015853746 -0.07255616 -0.045322485 -0.04178087
000160 7c 3c 3f 3d 87 ce fe 3c 0c af 06 be 73 c2 c7 bd
       0.04668854 0.03110434 -0.13152713 -0.09753885
000170 16 82 3e be 10 63 1b be 4b 7b 6c bd ce b4 a8 3d
       -0.18604311 -0.15174508 -0.05773477 0.08237611
000180 f6 ec 7d bd 8c 4a 17 bd a2 3e 37 3c ef 93 84 bd
       -0.06199356 -0.036936328 0.011184366 -0.064735286
000190 0f fa 95 bd 77 32 37 bd 92 4f 5a bd 6c 00 65 bc
       -0.073230855 -0.04472586 -0.05329854 -0.013977151
0001a0 5f 83 91 3d 6f ec 89 bd d9 41 c1 3c fa a8 13 be
       0.07105135 -0.06734549 0.023590969 -0.14419928
0001b0 2a 05 7c 3d 36 33 12 bd d6 dd b0 bd 82 0d b0 bd
       0.061528362 -0.03569337 -0.08636062 -0.085963264
0001c0 27 e3 23 bd a0 f6 17 be 37 f4 78 bc 39 8f e2 3d
       -0.04001155 -0.14840174 -0.015194944 0.11062474
0001d0 3e c5 34 3e c3 c6 8d bd 18 80 98 3d ba 81 58 3d
       0.17653367 -0.069226764 0.07446307 0.052858092
0001e0 2c ef 11 be 15 9f 83 bd 90 50 03 bb ae ac b7 bc
       -0.14251393 -0.06426827 -0.0020037033 -0.022421207
0001f0 c0 bd 03 3e e6 e1 c7 3c 6c a3 b9 bd c9 46 b8 bc
       0.12865353 0.024399709 -0.090643734 -0.02249469
000200 71 56 56 bd 36 97 ac bd 04 49 21 3b 64 69 37 bc
       -0.05232853 -0.08427279 0.002461017 -0.011194561
000210 9f ac dd bd 11 61 f3 3d 14 c0 f4 bd 6e 82 98 3c
       -0.108239405 0.11883748 -0.119506985 0.018616881
000220 6b 70 ba bd 80 7d 9f 3d fd 57 6e 3a e5 ff ab 3c
       -0.09103473 0.07787609 0.0009092091 0.020996043
000230 89 ec 12 3e 5d 1a 07 3d 34 d5 9c 3d 7d ca 2b 3e
       0.14348044 0.032984126 0.07657853 0.16776462
000240 53 30 5a be 9a b6 c1 3d b7 60 2b 3c 17 96 9c 3d
       -0.21307497 0.094586566 0.01046007 0.07645815
000250 2c 24 24 3e 5e b6 38 3d 1f 16 2f 3d ac 01 1f bc
       0.16029423 0.045095794 0.042745706 -0.009704988
000260 eb 7e 88 bc 63 34 2f bd 27 2d ff 3d c5 55 80 3c
       -0.016662082 -0.04277457 0.12459784 0.015665898
000270 e8 95 e7 3c 3e 1e 0e 3e 0a ee ea bc 59 8a df bd
       0.028269723 0.13878724 -0.028677959 -0.109150596
000280 90 4b 11 3e 3e 4f 2d bd d4 22 87 3c c8 33 3c bd
       0.14188981 -0.0423119 0.0164961 -0.04594782
000290 92 2d 43 bd eb d1 d8 3d f8 3f 05 3e a3 42 d2 bc
       -0.04765088 0.10586914 0.13012683 -0.02566654
0002a0 59 de 53 bd a2 2d df bc 11 58 7f 3c c4 45 01 bd
       -0.05172572 -0.02724344 0.0155849615 -0.031560674
0002b0 04 2b f8 bd c3 2b c8 3c 69 18 95 bd 36 39 d3 ba
       -0.121175796 0.02443493 -0.072800465 -0.0016115073
0002c0 c1 d4 9e 3d a9 b6 1a be 1e d2 b2 3d 66 df 48 3c
       0.07755423 -0.15108742 0.08731483 0.012260294
0002d0 44 11 0f 3e 4d 1a 08 3d e2 9e c3 3d 1d 93 45 3e
       0.1397143 0.033228207 0.09551789 0.192944
0002e0 35 9d df bc 9c 8b e3 3d dd 7f 0c be a5 34 20 3d
       -0.027296642 0.11110613 -0.13720651 0.039112706
0002f0 16 ac a8 bd c7 4c 07 bd c9 b5 a4 3c 64 3c 65 bd
       -0.08235948 -0.033032205 0.020106213 -0.055965796
000300 d6 0e 07 3c db 4f 8f 3d 00 b4 92 3d d2 99 e5 39
       0.008243283 0.06997653 0.071632385 0.0004379289
000310 12 10 e0 bd 2f af be bc ef b2 84 bd 6d e8 2d bd
       -0.10940565 -0.023276893 -0.064794414 -0.042457987
000320 87 f5 9b 3d 78 82 06 bc 86 9a 93 3c 9d 1f 80 3c
       0.0761519 -0.008209817 0.018018018 0.015640074
000330 61 8b 8e 3d 7f 80 20 3d 66 e2 83 3d 94 a8 9e 3d
       0.06960178 0.039185043 0.064396665 0.077469975
000340 e6 e5 3a 3e d0 e8 0e be f8 8c 0f 3e 12 1f 5e 3d
       0.18251762 -0.13955998 0.14018619 0.05422885
000350 ba 51 73 bd 69 94 c6 3d e5 7a 93 3d 57 1e d6 bd
       -0.059404112 0.09696276 0.07201175 -0.104550056
000360 24 27 d8 bc 7c 30 51 3d 5c 23 30 3e d2 c3 7d 3d
       -0.026385851 0.05107163 0.17200989 0.061954327
000370 60 cb d8 bd dd f6 cb 3d b0 f4 6b bd c4 f9 44 bd
       -0.10585666 0.09959195 -0.0576064 -0.048089758
000380 9c e4 bb bd f8 a9 2f be b3 2a 8e 3d 21 26 2d 3d
       -0.09174463 -0.17154682 0.06941738 0.04227269
000390 a3 29 b9 3b 4d f7 c0 3c 1c b4 6b 3d 9b 83 8d bc
       0.0056507154 0.023555422 0.057544813 -0.017274668
0003a0 be 5b 38 be 80 42 23 bd 73 3d e8 3c 9e 78 8e 3a
       -0.18003747 -0.03985834 0.028349614 0.0010869687
0003b0 c6 c9 b7 bd 87 eb b4 3c 6a 5d b8 3d 99 17 d6 bd
       -0.08974032 0.022084964 0.09002192 -0.1045372
0003c0 ed 48 81 bd 95 52 e0 3c 23 8d 55 bd 24 08 8c 3a
       -0.063127376 0.027383128 -0.05213655 0.0010683578
0003d0 18 d7 cf bd 5d 90 e7 bd 9b 99 ff 3d 24 ff eb bd
       -0.10148448 -0.11306832 0.1248047 -0.115232736
0003e0 9d 9b 10 bd ca 93 eb bd 8a 31 f7 3d 9f 6d 71 bd
       -0.035304654 -0.11502798 0.12069996 -0.058942433
0003f0 89 43 1e bd cf aa 5b bd bb 2d 1d 3c ef b1 e2 bd
       -0.038638625 -0.053629693 0.0095934225 -0.110690944

features.3.bias f4 [32]
000000 18 e8 27 3a f9 d5 c1 ba 8f f4 8f 36 9f 98 31 ba
       0.0006405129 -0.00147885 4.2902025e-06 -0.00067747565
000010 5d 07 be ba b6 62 72 3a a2 8d 0b bb dd 7f 38 bb
       -0.0014498044 0.00092462765 -0.0021294137 -0.0028152384
000020 da bc e6 3a eb 57 1a 3a 11 82 9a b9 c8 f6 67 3a
       0.001760389 0.00058877346 -0.00029470076 0.0008848724
000030 e5 08 fb 3a 68 3a 84 39 68 38 4a 3b d4 2f cd ba
       0.0019152431 0.00025220518 0.0030856375 -0.0015654513
000040 b3 e8 1b b9 5d 06 0b bb df 43 e5 ba 01 8c 13 bb
       -0.00014868639 -0.002121351 -0.0017491541 -0.0022513869
000050 bb 1f 11 39 2f fe 24 ba 6c b5 d4 ba 35 a4 dc 39
       0.00013840098 -0.000629398 -0.0016228384 0.00042084014
000060 ac bf 72 3a 01 2d bd 3a 3a 79 60 ba f5 0b 60 ba
       0.0009260129 0.0014432968 -0.0008562986 -0.00085467036
000070 fd 61 19 38 d0 b4 2f 39 f9 9a 02 38 c3 3f 9d 3a
       3.65693e-05 0.00016756658 3.1138745e-05 0.0011997152

features.4.weight f4 [32]
000000 fb 43 7d 3f d1 6d 81 3f c7 6c 81 3f 5a 82 81 3f
       0.98931855 1.0111638 1.0111321 1.0117905
000010 05 2e 7d 3f 5c 9c 81 3f 26 63 81 3f f7 31 7d 3f
       0.98898345 1.0125842 1.0108383 0.98904365
000020 77 b0 81 3f d5 31 7d 3f bf 76 81 3f 50 6f 81 3f
       1.0131978 0.9890416 1.0114363 1.0112095
000030 8d 7a 81 3f a1 39 81 3f 49 58 81 3f 2e 26 7d 3f
       1.0115525 1.0095712 1.0105067 0.9888638
000040 cc 9c 81 3f 15 df 7c 3f 34 6c 81 3f e7 0d 7d 3f
       1.0125976 0.98777896 1.0111146 0.9884934
000050 67 19 7d 3f 50 49 7f 3f cf 74 81 3f 2c e5 7c 3f
       0.98866886 0.9972124 1.0113772 0.9878719
000060 f2 d1 7c 3f bb 67 7d 3f 4a e3 7e 3f 87 fe 7c 3f
       0.9875785 0.98986405 0.99565566 0.9882588
000070 bb 8b 81 3f ea f0 7c 3f a3 43 7d 3f 71 c2 81 3f
       1.0120767 0.98805106 0.9893133 1.0137464

features.4.bias f4 [32]
000000 b0 01 2f bc 0b 8d 3e 3c 71 a9 3a 3c 74 dd 41 3c
       -0.010681555 0.011630307 0.011392937 0.011832584
000010 9f 7c 35 bc 48 08 44 3c 8b 03 41 3c 08 cf 38 bc
       -0.011077075 0.011964865 0.01178063 -0.011279829
000020 22 2d 5b 3c ec 41 3c bc 41 3f 3e 3c ab ac 41 3c
       0.01337746 -0.011490326 0.011611761 0.011820952
000030 d7 cf 3c 3c a9 18 35 3c 16 c7 32 3c 79 62 40 bc
       0.011524162 0.011053243 0.010911724 -0.011742228
000040 f9 c8 4e 3c 35 75 45 bc f0 e0 39 3c 7f f2 3c bc
       0.012621158 -0.01205187 0.011345133 -0.011532425
000050 cc f7 36 bc 86 91 94 bb 51 95 3d 3c e9 4e 45 bc
       -0.011167478 -0.0045339493 0.011571244 -0.012042739
000060 e8 7b 43 bc e3 da 31 bc 3c df f8 3b b6 09 3a bc
       -0.011931397 -0.010855409 0.007594971 -0.011354854
000070 ab 5f 42 3c 08 08 4e bc 23 ba 21 bc 46 a1 55 3c
       0.011863629 -0.012575157 -0.009871039 0.013038939

features.4.running_mean f4 [32]
000000 b1 e9 2f bf 53 a9 79 3e 3d cc 6a 3f 23 b0 db bd
       -0.6871596 0.24380998 0.9171789 -0.10726955
000010 5a 58 89 3e 5f 7e 21 bf 2c 18 4c 3e a8 66 d2 3d
       0.2682522 -0.6308345 0.19931096 0.102734864
000020 2c de e3 be d1 0e de bd dc bf 51 3e 23 50 3f 3e
       -0.4450544 -0.1084267 0.20483345 0.18682913
000030 5c 52 a2 be 29 5e 34 be 34 58 f7 3e f0 50 a6 bd
       -0.3170346 -0.17614044 0.4830948 -0.08120906
000040 ed 52 81 3e c7 ac 84 3e d4 ab 81 3e 8a e3 d3 bc
       0.2525858 0.2591307 0.25326407 -0.025865335
000050 a9 fb 29 bd 23 2a c7 3d e0 49 40 bd 1a 14 b4 bd
       -0.041499767 0.09724834 -0.046945453 -0.087928966
000060 74 aa 3c 3e 57 8a 3f 3f 1f b3 5e bd b8 0a 93 be
       0.18424398 0.74820465 -0.054370042 -0.28719115
000070 c1 2c ac 3c de 99 93 3f 5b 4b 3b bf 9a 89 1b bf
       0.021017434 1.1531332 -0.7316186 -0.6075684

features.4.running_var f4 [32]
000000 bf ef e1 3e a2 e1 57 3e 30 59 f4 3e c5 9e b3 3e
       0.44128224 0.21082166 0.47724295 0.3508207
000010 f2 71 9a 3e f8 84 ba 3e 12 aa 96 3e 24 9d f7 3e
       0.30165058 0.36429572 0.29426628 0.48362076
000020 70 cd d7 3e e1 8f 7c 3f b8 4b 8d 3e c8 d6 7a 3e
       0.42148924 0.9865704 0.2759683 0.24495995
000030 75 8b ba 3e bb 23 9f 3e e7 21 04 3f 96 4c 60 3f
       0.36434522 0.31081948 0.5161423 0.8761686
000040 6b af d3 3e cc ab 9d 3e f1 9d 09 3f e1 0a 11 3f
       0.4134477 0.30795133 0.53756624 0.56657225
000050 16 18 24 3e cb 67 25 3f 85 81 5b 3e 9a 47 cb 3e
       0.16024813 0.646115 0.21436127 0.39703065
000060 86 2a fa 3e 01 ea 8e 3e ed 74 e3 3e e0 07 dc 3e
       0.48860568 0.27912906 0.44425145 0.42974758
000070 16 3c 8b 3e f4 17 f2 3e ec 14 b7 3e db 9f 0c 3f
       0.2719428 0.472839 0.3575815 0.5493142

density_head.1.weight f4 [16, 32, 1, 1]
000000 71 8c fc 3e 54 93 0b bf a3 5c 74 be d2 59 a4 be
       0.49325898 -0.5452168 -0.23863463 -0.32099777
000010 51 f4 d0 3e ba 80 c9 be 17 8e ff 3d 31 37 90 3e
       0.408114 -0.39356023 0.12478273 0.28167108
000020 10 dd 9f be 38 21 02 3f ca 5d d7 3d a6 fe fc be
       -0.31223345 0.5083194 0.10515936 -0.4941303
000030 40 3f e5 3c 6f e3 fc 3e e2 3e 1b bf b6 94 cc be
       0.027984262 0.49392268 -0.60642827 -0.39957207
000040 1a d2 0c 3e 0f 92 55 3e 68 1b 90 3d f9 0b aa be
       0.13752022 0.20856498 0.07036477 -0.3321226
000050 0d ff 0e be 54 99 6d be 45 f4 6f 3e d0 7b 4c 3e
       -0.13964482 -0.23203021 0.23433025 0.19969106
000060 4e 11 08 3e 7d 80 bd 3d be e1 e4 be c1 f2 8f 3d
       0.13287851 0.09253023 -0.44703478 0.070287235
000070 1a eb 84 3e a2 20 bc be 48 6c 02 bd 14 8d 35 bd
       0.25960618 -0.36743647 -0.031841546 -0.044323996
000080 2d af 0d be 5b 6a bb 3d c9 5b 5e 3e b7 2e 7a 3e
       -0.13836356 0.09151145 0.21714701 0.24431883
000090 6b b4 e2 3d e4 bd 68 bf d9 44 01 3f 2e 88 6e be
       0.11069568 -0.9091475 0.5049568 -0.23294136
0000a0 7e 9f b9 3d 55 1b 04 3f 28 23 5c be 38 f1 70 be
       0.09063624 0.51604205 -0.21497786 -0.23529518
0000b0 a4 91 1f bc 82 24 af be b7 26 20 3f 9f a0 0a 3e
       -0.009739313 -0.3420754 0.62559074 0.13537835
0000c0 82 27 75 3e 36 d0 4f be 70 76 ad be a3 9c aa bc
       0.23940852 -0.2029427 -0.33879423 -0.020826643
0000d0 1e cc 97 bc 53 cd 77 bf 85 1e 17 be 36 10 0e be
       -0.018529948 -0.96797675 -0.14757736 -0.13873371
0000e0 96 70 04 bf cf 2c b7 be f8 a6 f3 be fd b3 fb 3d
       -0.5173429 -0.35776374 -0.47588325 0.122901894
0000f0 52 0e f3 be 7c b2 e7 3e 29 2a ec be 77 d5 85 3d
       -0.47471863 0.4525336 -0.46125916 0.06534856
000100 52 92 5a be df 2d 61 3d 20 ee 7e be 9c 3c bd bd
       -0.2134488 0.054975387 -0.24895525 -0.09240076
000110 0f 89 91 be 7c b0 9a 3d 48 c8 d8 3d 1c 94 ce 3d
       -0.2842488 0.07553193 0.105850756 0.10086843
000120 fd 7f 51 be dc 75 f8 be 9a 4c 36 be e7 9a 00 bf
       -0.2045898 -0.4852742 -0.17802659 -0.5023636
000130 d8 0b 23 bd 70 de 7d bd a1 ff 36 3e 2e a9 04 bf
       -0.039806217 -0.06197971 0.17870952 -0.5182065
000140 90 65 87 3e 1f 75 86 bd 17 5b 93 be 66 8a 8d 3e
       0.26444674 -0.06565308 -0.28780434 0.27644652
000150 7c 66 75 be 91 79 95 be 4b 0e d3 be 73 79 a5 be
       -0.23964876 -0.2919431 -0.41221842 -0.3231922
000160 11 ba 3f 3d 01 a1 92 be ee 58 70 3e ba 60 3c 3e
       0.046808306 -0.2863846 0.23471424 0.18396273
000170 12 28 6f 3e f7 70 e2 be 05 fd b4 3d ee d6 b9 3d
       0.2335513 -0.4422681 0.08837322 0.09074198
000180 2b f5 9e 3e d6 61 41 be ef ef 8a be 00 4e be 3d
       0.31046423 -0.18884978 -0.2713618 0.09292221
000190 50 10 c8 3e 15 0c 03 be 82 13 5a bd 1f 5b 8f 3e
       0.39074945 -0.12797578 -0.05324126 0.27999207
0001a0 23 1f 0d be d5 d2 14 bd bd 6d 6e 3e 9c ec 12 be
       -0.13781409 -0.036333878 0.2328405 -0.14348072
0001b0 98 f1 8c be 93 68 1b be 72 79 18 bf 08 e0 a0 3c
       -0.2752807 -0.1517661 -0.5956031 0.019638076
0001c0 2e b7 f4 bc 55 1b 38 3e 21 16 8d bb 05 b8 1b 3e
       -0.029872503 0.17979176 -0.0043056165 0.15206917
0001d0 32 52 f3 3d c2 08 3c 3f 30 33 ee be b4 76 f9 be
       0.11880912 0.73450863 -0.46523428 -0.48723376
0001e0 be 03 f7 be 99 24 64 3e ad 67 92 3e 7b 37 c7 3d
       -0.48245043 0.22279586 0.28594723 0.09727379
0001f0 81 dd 95 3d 3b 87 9b 3a e8 68 1a be af 50 2d bc
       0.07317639 0.0011865863 -0.15079081 -0.0105783185
000200 b5 1f 42 3f 86 1a ab 3e f2 4d b0 3e 19 9c 0f bc
       0.7582963 0.33418673 0.34434468 -0.008765244
000210 09 f2 99 3c 74 88 38 be 4d 02 1c 3f 24 26 64 bd
       0.01879217 -0.18020803 0.6094101 -0.055700436
000220 95 2c c5 3e 77 a7 a1 3d 7f 53 44 3e 16 78 9f 3e
       0.38510576 0.078932695 0.19172476 0.31146306
000230 bb f8 ff 3e 03 7e 59 3e 26 3f 5c bd 06 57 8b bf
       0.49994454 0.21239476 -0.05377116 -1.0885932
000240 85 58 88 3e 77 e9 29 3b 99 4e 80 3e e9 57 fd bd
       0.26630035 0.002592651 0.25059965 -0.12370283
000250 55 96 c9 bd 68 59 59 be 38 3e b4 bc 2a 36 c8 3e
       -0.09843127 -0.21225512 -0.022002324 0.39103824
000260 f6 e1 3f 3e 7e d3 09 3e bc 5c 3b 3f fa e9 ed be
       0.18738541 0.13459584 0.73188376 -0.46467572
000270 96 67 93 bb 06 a2 8c bf 46 ca 09 3f 56 57 18 3f
       -0.0044984324 -1.0986946 0.5382427 0.59508264
000280 6c bf 4e 3e 23 3f 0d 3c fc 61 25 3f d2 c8 08 3f
       0.20190209 0.00862101 0.6460264 0.5343143
000290 cf 7d 99 be d0 38 22 3f e7 99 e7 3c fb f2 17 bd
       -0.29978797 0.6336794 0.028271629 -0.03709696
0002a0 86 88 b1 3e 73 d9 3e 3f df 78 65 3e b2 02 1a 3f
       0.34674472 0.7455055 0.2240939 0.6016036
0002b0 43 8c 26 3e 50 b9 17 3e d9 20 26 3e 05 22 7d be
       0.16264443 0.14816785 0.16223468 -0.24720009
0002c0 6c 51 2b bf 94 14 0a 3e 33 73 59 3e bf e8 af bb
       -0.66921115 0.13484412 0.21235351 -0.0053683217
0002d0 75 71 f2 3d 6a 18 54 be d0 6a 9a be 15 f0 02 3f
       0.118380465 -0.20712438 -0.30159616 0.51147586
0002e0 ad 11 32 be 41 89 61 bd 28 29 5a 3d 7c e5 ad 3c
       -0.17389555 -0.055062536 0.053261906 0.02122759
0002f0 d6 f6 51 3e 54 04 b6 3e 01 99 94 3e f7 7a 86 3c
       0.20504317 0.35550177 0.29022983 0.016416056
000300 d8 d8 ad be 09 e3 6c 3e a2 bb 5f be 92 bd 82 3e
       -0.339545 0.23133482 -0.2184892 0.25535256
000310 53 4f 72 be fd 8e fa 3e 15 a6 11 3e a1 6e 84 3d
       -0.23663072 0.48937216 0.14223512 0.06466413
000320 ac 10 2f 3e 72 a4 63 bf 7f 40 da be ff f0 52 3d
       0.17096204 -0.889228 -0.42627332 0.051499363
000330 78 aa 00 3e 49 e6 25 bf 11 7f 83 bd be 97 2b 3f
       0.12565029 -0.6480451 -0.0642072 0.67028415
000340 48 78 fb 3e 72 64 2a be 98 22 93 3e 21 2c 8f be
       0.49115205 -0.1663988 0.2873733 -0.27963355
000350 a8 ac 64 3d 42 21 2a bf b0 91 13 3e fe 94 1c 3f
       0.05582872 -0.66457 0.14411044 0.61164844
000360 88 88 83 3e c0 64 19 bf 65 a5 56 3e 4f 82 c0 3e
       0.25690103 -0.5991936 0.2096153 0.37599418
000370 47 96 e0 bd 3a 1c 18 3d 00 ae 84 bd 80 9b d5 be
       -0.10966163 0.037136294 -0.064785 -0.417202
000380 9c 5d d8 bc 72 08 17 3e 44 f5 3d bd ac 6f 7f be
       -0.026411824 0.14749315 -0.04637648 -0.24944943
000390 ff 18 b1 be dd 01 c4 be d1 2e 9f be f4 7d 3f be
       -0.34589383 -0.38282672 -0.31090406 -0.18700391
0003a0 64 43 bd bd 17 6a 45 3e b7 65 a5 bd e6 d0 d9 bd
       -0.09241369 0.19278751 -0.08076041 -0.10635547
0003b0 aa 15 9d be 50 b5 76 3e e0 44 f7 be 6b 8e a6 bd
       -0.3068059 0.24092603 -0.48294735 -0.08132633
0003c0 8d 2a d5 3a 29 d1 28 3f 0a e6 e3 be f2 fa e0 3e
       0.0016263291 0.65944153 -0.44511443 0.43941456
0003d0 cc c2 19 3f da 43 4c be 3a 1a 25 be a1 d5 b7 3e
       0.6006286 -0.19947758 -0.16123286 0.35905173
0003e0 a6 c3 95 3e c9 6e a9 3e f2 67 69 bd 06 ba e0 3c
       0.2925083 0.33092335 -0.056983896 0.027432453
0003f0 6a 54 5d be f5 59 38 3e b1 ac d4 3d 06 54 0a bf
       -0.21614233 0.18003066 0.10384501 -0.5403446

density_head.1.bias f4 [16]
000000 1f cf 45 bc 14 7b 47 bc d3 67 aa 3b fa 6f 34 bc
       -0.012073307 -0.01217534 0.005200365 -0.011013025
000010 15 62 45 3c 6b 26 41 bc 74 5d 42 3c 63 26 3f bc
       0.01204731 -0.011788945 0.011863101 -0.011666867
000020 eb c4 4c 3c 89 a9 69 3c 19 fb 2b 3c d6 18 40 3c
       0.012498121 0.014261612 0.010496878 0.011724671
000030 49 e9 33 bc 3b b0 37 3c ed d2 3c 3c 37 e1 50 3c
       -0.0109809125 0.01121145 0.011524898 0.012749008

density_head.3.weight f4 [1, 16, 1, 1]
000000 13 f7 5e 3f b8 c5 d0 3f 91 d9 f2 bf b8 61 c8 3f
       0.87095755 1.6310339 -1.8972646 1.5654821
000010 39 35 17 bf e6 86 ec 3e 85 11 35 be e0 d5 f0 3f
       -0.59065586 0.4619667 -0.17682464 1.881527
000020 0a 88 e9 bf 5d 10 c5 bd 2a 8b 5e bf d9 92 e1 bf
       -1.8244641 -0.09622262 -0.869311 -1.7622939
000030 36 24 3f 3f 8f 9d 28 c0 02 5d 76 bf 8a 67 f6 be
       0.7466463 -2.6346166 -0.9623567 -0.4812587
